{"keras_version": "2.1.2", "config": {"output_layers": [["fire9/concat", 0, 0]], "name": "squeezenet", "input_layers": [["input_1", 0, 0]], "layers": [{"inbound_nodes": [], "config": {"dtype": "float32", "batch_input_shape": [null, 227, 227, 3], "name": "input_1", "sparse": false}, "class_name": "InputLayer", "name": "input_1"}, {"inbound_nodes": [[["input_1", 0, 0, {}]]], "config": {"strides": [2, 2], "bias_initializer": {"config": {}, "class_name": "Zeros"}, "kernel_initializer": {"config": {"distribution": "uniform", "scale": 1.0, "mode": "fan_avg", "seed": null}, "class_name": "VarianceScaling"}, "filters": 64, "use_bias": true, "kernel_size": [3, 3], "kernel_regularizer": null, "data_format": "channels_last", "name": "conv1", "activity_regularizer": null, "padding": "valid", "trainable": false, "dilation_rate": [1, 1], "kernel_constraint": null, "activation": "linear", "bias_constraint": null, "bias_regularizer": null}, "class_name": "Conv2D", "name": "conv1"}, {"inbound_nodes": [[["conv1", 0, 0, {}]]], "config": {"trainable": false, "activation": "relu", "name": "relu_conv1"}, "class_name": "Activation", "name": "relu_conv1"}, {"inbound_nodes": [[["relu_conv1", 0, 0, {}]]], "config": {"strides": [2, 2], "padding": "valid", "pool_size": [3, 3], "trainable": false, "data_format": "channels_last", "name": "pool1"}, "class_name": "MaxPooling2D", "name": "pool1"}, {"inbound_nodes": [[["pool1", 0, 0, {}]]], "config": {"strides": [1, 1], "bias_initializer": {"config": {}, "class_name": "Zeros"}, "kernel_initializer": {"config": {"distribution": "uniform", "scale": 1.0, "mode": "fan_avg", "seed": null}, "class_name": "VarianceScaling"}, "filters": 16, "use_bias": true, "kernel_size": [1, 1], "kernel_regularizer": null, "data_format": "channels_last", "name": "fire2/squeeze1x1", "activity_regularizer": null, "padding": "valid", "trainable": false, "dilation_rate": [1, 1], "kernel_constraint": null, "activation": "linear", "bias_constraint": null, "bias_regularizer": null}, "class_name": "Conv2D", "name": "fire2/squeeze1x1"}, {"inbound_nodes": [[["fire2/squeeze1x1", 0, 0, {}]]], "config": {"trainable": false, "activation": "relu", "name": "fire2/relu_squeeze1x1"}, "class_name": "Activation", "name": "fire2/relu_squeeze1x1"}, {"inbound_nodes": [[["fire2/relu_squeeze1x1", 0, 0, {}]]], "config": {"strides": [1, 1], "bias_initializer": {"config": {}, "class_name": "Zeros"}, "kernel_initializer": {"config": {"distribution": "uniform", "scale": 1.0, "mode": "fan_avg", "seed": null}, "class_name": "VarianceScaling"}, "filters": 64, "use_bias": true, "kernel_size": [1, 1], "kernel_regularizer": null, "data_format": "channels_last", "name": "fire2/expand1x1", "activity_regularizer": null, "padding": "valid", "trainable": false, "dilation_rate": [1, 1], "kernel_constraint": null, "activation": "linear", "bias_constraint": null, "bias_regularizer": null}, "class_name": "Conv2D", "name": "fire2/expand1x1"}, {"inbound_nodes": [[["fire2/relu_squeeze1x1", 0, 0, {}]]], "config": {"strides": [1, 1], "bias_initializer": {"config": {}, "class_name": "Zeros"}, "kernel_initializer": {"config": {"distribution": "uniform", "scale": 1.0, "mode": "fan_avg", "seed": null}, "class_name": "VarianceScaling"}, "filters": 64, "use_bias": true, "kernel_size": [3, 3], "kernel_regularizer": null, "data_format": "channels_last", "name": "fire2/expand3x3", "activity_regularizer": null, "padding": "same", "trainable": false, "dilation_rate": [1, 1], "kernel_constraint": null, "activation": "linear", "bias_constraint": null, "bias_regularizer": null}, "class_name": "Conv2D", "name": "fire2/expand3x3"}, {"inbound_nodes": [[["fire2/expand1x1", 0, 0, {}]]], "config": {"trainable": false, "activation": "relu", "name": "fire2/relu_expand1x1"}, "class_name": "Activation", "name": "fire2/relu_expand1x1"}, {"inbound_nodes": [[["fire2/expand3x3", 0, 0, {}]]], "config": {"trainable": false, "activation": "relu", "name": "fire2/relu_expand3x3"}, "class_name": "Activation", "name": "fire2/relu_expand3x3"}, {"inbound_nodes": [[["fire2/relu_expand1x1", 0, 0, {}], ["fire2/relu_expand3x3", 0, 0, {}]]], "config": {"trainable": false, "axis": 3, "name": "fire2/concat"}, "class_name": "Concatenate", "name": "fire2/concat"}, {"inbound_nodes": [[["fire2/concat", 0, 0, {}]]], "config": {"strides": [1, 1], "bias_initializer": {"config": {}, "class_name": "Zeros"}, "kernel_initializer": {"config": {"distribution": "uniform", "scale": 1.0, "mode": "fan_avg", "seed": null}, "class_name": "VarianceScaling"}, "filters": 16, "use_bias": true, "kernel_size": [1, 1], "kernel_regularizer": null, "data_format": "channels_last", "name": "fire3/squeeze1x1", "activity_regularizer": null, "padding": "valid", "trainable": false, "dilation_rate": [1, 1], "kernel_constraint": null, "activation": "linear", "bias_constraint": null, "bias_regularizer": null}, "class_name": "Conv2D", "name": "fire3/squeeze1x1"}, {"inbound_nodes": [[["fire3/squeeze1x1", 0, 0, {}]]], "config": {"trainable": false, "activation": "relu", "name": "fire3/relu_squeeze1x1"}, "class_name": "Activation", "name": "fire3/relu_squeeze1x1"}, {"inbound_nodes": [[["fire3/relu_squeeze1x1", 0, 0, {}]]], "config": {"strides": [1, 1], "bias_initializer": {"config": {}, "class_name": "Zeros"}, "kernel_initializer": {"config": {"distribution": "uniform", "scale": 1.0, "mode": "fan_avg", "seed": null}, "class_name": "VarianceScaling"}, "filters": 64, "use_bias": true, "kernel_size": [1, 1], "kernel_regularizer": null, "data_format": "channels_last", "name": "fire3/expand1x1", "activity_regularizer": null, "padding": "valid", "trainable": false, "dilation_rate": [1, 1], "kernel_constraint": null, "activation": "linear", "bias_constraint": null, "bias_regularizer": null}, "class_name": "Conv2D", "name": "fire3/expand1x1"}, {"inbound_nodes": [[["fire3/relu_squeeze1x1", 0, 0, {}]]], "config": {"strides": [1, 1], "bias_initializer": {"config": {}, "class_name": "Zeros"}, "kernel_initializer": {"config": {"distribution": "uniform", "scale": 1.0, "mode": "fan_avg", "seed": null}, "class_name": "VarianceScaling"}, "filters": 64, "use_bias": true, "kernel_size": [3, 3], "kernel_regularizer": null, "data_format": "channels_last", "name": "fire3/expand3x3", "activity_regularizer": null, "padding": "same", "trainable": false, "dilation_rate": [1, 1], "kernel_constraint": null, "activation": "linear", "bias_constraint": null, "bias_regularizer": null}, "class_name": "Conv2D", "name": "fire3/expand3x3"}, {"inbound_nodes": [[["fire3/expand1x1", 0, 0, {}]]], "config": {"trainable": false, "activation": "relu", "name": "fire3/relu_expand1x1"}, "class_name": "Activation", "name": "fire3/relu_expand1x1"}, {"inbound_nodes": [[["fire3/expand3x3", 0, 0, {}]]], "config": {"trainable": false, "activation": "relu", "name": "fire3/relu_expand3x3"}, "class_name": "Activation", "name": "fire3/relu_expand3x3"}, {"inbound_nodes": [[["fire3/relu_expand1x1", 0, 0, {}], ["fire3/relu_expand3x3", 0, 0, {}]]], "config": {"trainable": false, "axis": 3, "name": "fire3/concat"}, "class_name": "Concatenate", "name": "fire3/concat"}, {"inbound_nodes": [[["fire3/concat", 0, 0, {}]]], "config": {"strides": [2, 2], "padding": "valid", "pool_size": [3, 3], "trainable": false, "data_format": "channels_last", "name": "pool3"}, "class_name": "MaxPooling2D", "name": "pool3"}, {"inbound_nodes": [[["pool3", 0, 0, {}]]], "config": {"strides": [1, 1], "bias_initializer": {"config": {}, "class_name": "Zeros"}, "kernel_initializer": {"config": {"distribution": "uniform", "scale": 1.0, "mode": "fan_avg", "seed": null}, "class_name": "VarianceScaling"}, "filters": 32, "use_bias": true, "kernel_size": [1, 1], "kernel_regularizer": null, "data_format": "channels_last", "name": "fire4/squeeze1x1", "activity_regularizer": null, "padding": "valid", "trainable": false, "dilation_rate": [1, 1], "kernel_constraint": null, "activation": "linear", "bias_constraint": null, "bias_regularizer": null}, "class_name": "Conv2D", "name": "fire4/squeeze1x1"}, {"inbound_nodes": [[["fire4/squeeze1x1", 0, 0, {}]]], "config": {"trainable": false, "activation": "relu", "name": "fire4/relu_squeeze1x1"}, "class_name": "Activation", "name": "fire4/relu_squeeze1x1"}, {"inbound_nodes": [[["fire4/relu_squeeze1x1", 0, 0, {}]]], "config": {"strides": [1, 1], "bias_initializer": {"config": {}, "class_name": "Zeros"}, "kernel_initializer": {"config": {"distribution": "uniform", "scale": 1.0, "mode": "fan_avg", "seed": null}, "class_name": "VarianceScaling"}, "filters": 128, "use_bias": true, "kernel_size": [1, 1], "kernel_regularizer": null, "data_format": "channels_last", "name": "fire4/expand1x1", "activity_regularizer": null, "padding": "valid", "trainable": false, "dilation_rate": [1, 1], "kernel_constraint": null, "activation": "linear", "bias_constraint": null, "bias_regularizer": null}, "class_name": "Conv2D", "name": "fire4/expand1x1"}, {"inbound_nodes": [[["fire4/relu_squeeze1x1", 0, 0, {}]]], "config": {"strides": [1, 1], "bias_initializer": {"config": {}, "class_name": "Zeros"}, "kernel_initializer": {"config": {"distribution": "uniform", "scale": 1.0, "mode": "fan_avg", "seed": null}, "class_name": "VarianceScaling"}, "filters": 128, "use_bias": true, "kernel_size": [3, 3], "kernel_regularizer": null, "data_format": "channels_last", "name": "fire4/expand3x3", "activity_regularizer": null, "padding": "same", "trainable": false, "dilation_rate": [1, 1], "kernel_constraint": null, "activation": "linear", "bias_constraint": null, "bias_regularizer": null}, "class_name": "Conv2D", "name": "fire4/expand3x3"}, {"inbound_nodes": [[["fire4/expand1x1", 0, 0, {}]]], "config": {"trainable": false, "activation": "relu", "name": "fire4/relu_expand1x1"}, "class_name": "Activation", "name": "fire4/relu_expand1x1"}, {"inbound_nodes": [[["fire4/expand3x3", 0, 0, {}]]], "config": {"trainable": false, "activation": "relu", "name": "fire4/relu_expand3x3"}, "class_name": "Activation", "name": "fire4/relu_expand3x3"}, {"inbound_nodes": [[["fire4/relu_expand1x1", 0, 0, {}], ["fire4/relu_expand3x3", 0, 0, {}]]], "config": {"trainable": false, "axis": 3, "name": "fire4/concat"}, "class_name": "Concatenate", "name": "fire4/concat"}, {"inbound_nodes": [[["fire4/concat", 0, 0, {}]]], "config": {"strides": [1, 1], "bias_initializer": {"config": {}, "class_name": "Zeros"}, "kernel_initializer": {"config": {"distribution": "uniform", "scale": 1.0, "mode": "fan_avg", "seed": null}, "class_name": "VarianceScaling"}, "filters": 32, "use_bias": true, "kernel_size": [1, 1], "kernel_regularizer": null, "data_format": "channels_last", "name": "fire5/squeeze1x1", "activity_regularizer": null, "padding": "valid", "trainable": false, "dilation_rate": [1, 1], "kernel_constraint": null, "activation": "linear", "bias_constraint": null, "bias_regularizer": null}, "class_name": "Conv2D", "name": "fire5/squeeze1x1"}, {"inbound_nodes": [[["fire5/squeeze1x1", 0, 0, {}]]], "config": {"trainable": false, "activation": "relu", "name": "fire5/relu_squeeze1x1"}, "class_name": "Activation", "name": "fire5/relu_squeeze1x1"}, {"inbound_nodes": [[["fire5/relu_squeeze1x1", 0, 0, {}]]], "config": {"strides": [1, 1], "bias_initializer": {"config": {}, "class_name": "Zeros"}, "kernel_initializer": {"config": {"distribution": "uniform", "scale": 1.0, "mode": "fan_avg", "seed": null}, "class_name": "VarianceScaling"}, "filters": 128, "use_bias": true, "kernel_size": [1, 1], "kernel_regularizer": null, "data_format": "channels_last", "name": "fire5/expand1x1", "activity_regularizer": null, "padding": "valid", "trainable": false, "dilation_rate": [1, 1], "kernel_constraint": null, "activation": "linear", "bias_constraint": null, "bias_regularizer": null}, "class_name": "Conv2D", "name": "fire5/expand1x1"}, {"inbound_nodes": [[["fire5/relu_squeeze1x1", 0, 0, {}]]], "config": {"strides": [1, 1], "bias_initializer": {"config": {}, "class_name": "Zeros"}, "kernel_initializer": {"config": {"distribution": "uniform", "scale": 1.0, "mode": "fan_avg", "seed": null}, "class_name": "VarianceScaling"}, "filters": 128, "use_bias": true, "kernel_size": [3, 3], "kernel_regularizer": null, "data_format": "channels_last", "name": "fire5/expand3x3", "activity_regularizer": null, "padding": "same", "trainable": false, "dilation_rate": [1, 1], "kernel_constraint": null, "activation": "linear", "bias_constraint": null, "bias_regularizer": null}, "class_name": "Conv2D", "name": "fire5/expand3x3"}, {"inbound_nodes": [[["fire5/expand1x1", 0, 0, {}]]], "config": {"trainable": false, "activation": "relu", "name": "fire5/relu_expand1x1"}, "class_name": "Activation", "name": "fire5/relu_expand1x1"}, {"inbound_nodes": [[["fire5/expand3x3", 0, 0, {}]]], "config": {"trainable": false, "activation": "relu", "name": "fire5/relu_expand3x3"}, "class_name": "Activation", "name": "fire5/relu_expand3x3"}, {"inbound_nodes": [[["fire5/relu_expand1x1", 0, 0, {}], ["fire5/relu_expand3x3", 0, 0, {}]]], "config": {"trainable": false, "axis": 3, "name": "fire5/concat"}, "class_name": "Concatenate", "name": "fire5/concat"}, {"inbound_nodes": [[["fire5/concat", 0, 0, {}]]], "config": {"strides": [2, 2], "padding": "valid", "pool_size": [3, 3], "trainable": false, "data_format": "channels_last", "name": "pool5"}, "class_name": "MaxPooling2D", "name": "pool5"}, {"inbound_nodes": [[["pool5", 0, 0, {}]]], "config": {"strides": [1, 1], "bias_initializer": {"config": {}, "class_name": "Zeros"}, "kernel_initializer": {"config": {"distribution": "uniform", "scale": 1.0, "mode": "fan_avg", "seed": null}, "class_name": "VarianceScaling"}, "filters": 48, "use_bias": true, "kernel_size": [1, 1], "kernel_regularizer": null, "data_format": "channels_last", "name": "fire6/squeeze1x1", "activity_regularizer": null, "padding": "valid", "trainable": false, "dilation_rate": [1, 1], "kernel_constraint": null, "activation": "linear", "bias_constraint": null, "bias_regularizer": null}, "class_name": "Conv2D", "name": "fire6/squeeze1x1"}, {"inbound_nodes": [[["fire6/squeeze1x1", 0, 0, {}]]], "config": {"trainable": false, "activation": "relu", "name": "fire6/relu_squeeze1x1"}, "class_name": "Activation", "name": "fire6/relu_squeeze1x1"}, {"inbound_nodes": [[["fire6/relu_squeeze1x1", 0, 0, {}]]], "config": {"strides": [1, 1], "bias_initializer": {"config": {}, "class_name": "Zeros"}, "kernel_initializer": {"config": {"distribution": "uniform", "scale": 1.0, "mode": "fan_avg", "seed": null}, "class_name": "VarianceScaling"}, "filters": 192, "use_bias": true, "kernel_size": [1, 1], "kernel_regularizer": null, "data_format": "channels_last", "name": "fire6/expand1x1", "activity_regularizer": null, "padding": "valid", "trainable": false, "dilation_rate": [1, 1], "kernel_constraint": null, "activation": "linear", "bias_constraint": null, "bias_regularizer": null}, "class_name": "Conv2D", "name": "fire6/expand1x1"}, {"inbound_nodes": [[["fire6/relu_squeeze1x1", 0, 0, {}]]], "config": {"strides": [1, 1], "bias_initializer": {"config": {}, "class_name": "Zeros"}, "kernel_initializer": {"config": {"distribution": "uniform", "scale": 1.0, "mode": "fan_avg", "seed": null}, "class_name": "VarianceScaling"}, "filters": 192, "use_bias": true, "kernel_size": [3, 3], "kernel_regularizer": null, "data_format": "channels_last", "name": "fire6/expand3x3", "activity_regularizer": null, "padding": "same", "trainable": false, "dilation_rate": [1, 1], "kernel_constraint": null, "activation": "linear", "bias_constraint": null, "bias_regularizer": null}, "class_name": "Conv2D", "name": "fire6/expand3x3"}, {"inbound_nodes": [[["fire6/expand1x1", 0, 0, {}]]], "config": {"trainable": false, "activation": "relu", "name": "fire6/relu_expand1x1"}, "class_name": "Activation", "name": "fire6/relu_expand1x1"}, {"inbound_nodes": [[["fire6/expand3x3", 0, 0, {}]]], "config": {"trainable": false, "activation": "relu", "name": "fire6/relu_expand3x3"}, "class_name": "Activation", "name": "fire6/relu_expand3x3"}, {"inbound_nodes": [[["fire6/relu_expand1x1", 0, 0, {}], ["fire6/relu_expand3x3", 0, 0, {}]]], "config": {"trainable": false, "axis": 3, "name": "fire6/concat"}, "class_name": "Concatenate", "name": "fire6/concat"}, {"inbound_nodes": [[["fire6/concat", 0, 0, {}]]], "config": {"strides": [1, 1], "bias_initializer": {"config": {}, "class_name": "Zeros"}, "kernel_initializer": {"config": {"distribution": "uniform", "scale": 1.0, "mode": "fan_avg", "seed": null}, "class_name": "VarianceScaling"}, "filters": 48, "use_bias": true, "kernel_size": [1, 1], "kernel_regularizer": null, "data_format": "channels_last", "name": "fire7/squeeze1x1", "activity_regularizer": null, "padding": "valid", "trainable": false, "dilation_rate": [1, 1], "kernel_constraint": null, "activation": "linear", "bias_constraint": null, "bias_regularizer": null}, "class_name": "Conv2D", "name": "fire7/squeeze1x1"}, {"inbound_nodes": [[["fire7/squeeze1x1", 0, 0, {}]]], "config": {"trainable": false, "activation": "relu", "name": "fire7/relu_squeeze1x1"}, "class_name": "Activation", "name": "fire7/relu_squeeze1x1"}, {"inbound_nodes": [[["fire7/relu_squeeze1x1", 0, 0, {}]]], "config": {"strides": [1, 1], "bias_initializer": {"config": {}, "class_name": "Zeros"}, "kernel_initializer": {"config": {"distribution": "uniform", "scale": 1.0, "mode": "fan_avg", "seed": null}, "class_name": "VarianceScaling"}, "filters": 192, "use_bias": true, "kernel_size": [1, 1], "kernel_regularizer": null, "data_format": "channels_last", "name": "fire7/expand1x1", "activity_regularizer": null, "padding": "valid", "trainable": false, "dilation_rate": [1, 1], "kernel_constraint": null, "activation": "linear", "bias_constraint": null, "bias_regularizer": null}, "class_name": "Conv2D", "name": "fire7/expand1x1"}, {"inbound_nodes": [[["fire7/relu_squeeze1x1", 0, 0, {}]]], "config": {"strides": [1, 1], "bias_initializer": {"config": {}, "class_name": "Zeros"}, "kernel_initializer": {"config": {"distribution": "uniform", "scale": 1.0, "mode": "fan_avg", "seed": null}, "class_name": "VarianceScaling"}, "filters": 192, "use_bias": true, "kernel_size": [3, 3], "kernel_regularizer": null, "data_format": "channels_last", "name": "fire7/expand3x3", "activity_regularizer": null, "padding": "same", "trainable": false, "dilation_rate": [1, 1], "kernel_constraint": null, "activation": "linear", "bias_constraint": null, "bias_regularizer": null}, "class_name": "Conv2D", "name": "fire7/expand3x3"}, {"inbound_nodes": [[["fire7/expand1x1", 0, 0, {}]]], "config": {"trainable": false, "activation": "relu", "name": "fire7/relu_expand1x1"}, "class_name": "Activation", "name": "fire7/relu_expand1x1"}, {"inbound_nodes": [[["fire7/expand3x3", 0, 0, {}]]], "config": {"trainable": false, "activation": "relu", "name": "fire7/relu_expand3x3"}, "class_name": "Activation", "name": "fire7/relu_expand3x3"}, {"inbound_nodes": [[["fire7/relu_expand1x1", 0, 0, {}], ["fire7/relu_expand3x3", 0, 0, {}]]], "config": {"trainable": false, "axis": 3, "name": "fire7/concat"}, "class_name": "Concatenate", "name": "fire7/concat"}, {"inbound_nodes": [[["fire7/concat", 0, 0, {}]]], "config": {"strides": [1, 1], "bias_initializer": {"config": {}, "class_name": "Zeros"}, "kernel_initializer": {"config": {"distribution": "uniform", "scale": 1.0, "mode": "fan_avg", "seed": null}, "class_name": "VarianceScaling"}, "filters": 64, "use_bias": true, "kernel_size": [1, 1], "kernel_regularizer": null, "data_format": "channels_last", "name": "fire8/squeeze1x1", "activity_regularizer": null, "padding": "valid", "trainable": false, "dilation_rate": [1, 1], "kernel_constraint": null, "activation": "linear", "bias_constraint": null, "bias_regularizer": null}, "class_name": "Conv2D", "name": "fire8/squeeze1x1"}, {"inbound_nodes": [[["fire8/squeeze1x1", 0, 0, {}]]], "config": {"trainable": false, "activation": "relu", "name": "fire8/relu_squeeze1x1"}, "class_name": "Activation", "name": "fire8/relu_squeeze1x1"}, {"inbound_nodes": [[["fire8/relu_squeeze1x1", 0, 0, {}]]], "config": {"strides": [1, 1], "bias_initializer": {"config": {}, "class_name": "Zeros"}, "kernel_initializer": {"config": {"distribution": "uniform", "scale": 1.0, "mode": "fan_avg", "seed": null}, "class_name": "VarianceScaling"}, "filters": 256, "use_bias": true, "kernel_size": [1, 1], "kernel_regularizer": null, "data_format": "channels_last", "name": "fire8/expand1x1", "activity_regularizer": null, "padding": "valid", "trainable": false, "dilation_rate": [1, 1], "kernel_constraint": null, "activation": "linear", "bias_constraint": null, "bias_regularizer": null}, "class_name": "Conv2D", "name": "fire8/expand1x1"}, {"inbound_nodes": [[["fire8/relu_squeeze1x1", 0, 0, {}]]], "config": {"strides": [1, 1], "bias_initializer": {"config": {}, "class_name": "Zeros"}, "kernel_initializer": {"config": {"distribution": "uniform", "scale": 1.0, "mode": "fan_avg", "seed": null}, "class_name": "VarianceScaling"}, "filters": 256, "use_bias": true, "kernel_size": [3, 3], "kernel_regularizer": null, "data_format": "channels_last", "name": "fire8/expand3x3", "activity_regularizer": null, "padding": "same", "trainable": false, "dilation_rate": [1, 1], "kernel_constraint": null, "activation": "linear", "bias_constraint": null, "bias_regularizer": null}, "class_name": "Conv2D", "name": "fire8/expand3x3"}, {"inbound_nodes": [[["fire8/expand1x1", 0, 0, {}]]], "config": {"trainable": false, "activation": "relu", "name": "fire8/relu_expand1x1"}, "class_name": "Activation", "name": "fire8/relu_expand1x1"}, {"inbound_nodes": [[["fire8/expand3x3", 0, 0, {}]]], "config": {"trainable": false, "activation": "relu", "name": "fire8/relu_expand3x3"}, "class_name": "Activation", "name": "fire8/relu_expand3x3"}, {"inbound_nodes": [[["fire8/relu_expand1x1", 0, 0, {}], ["fire8/relu_expand3x3", 0, 0, {}]]], "config": {"trainable": false, "axis": 3, "name": "fire8/concat"}, "class_name": "Concatenate", "name": "fire8/concat"}, {"inbound_nodes": [[["fire8/concat", 0, 0, {}]]], "config": {"strides": [1, 1], "bias_initializer": {"config": {}, "class_name": "Zeros"}, "kernel_initializer": {"config": {"distribution": "uniform", "scale": 1.0, "mode": "fan_avg", "seed": null}, "class_name": "VarianceScaling"}, "filters": 64, "use_bias": true, "kernel_size": [1, 1], "kernel_regularizer": null, "data_format": "channels_last", "name": "fire9/squeeze1x1", "activity_regularizer": null, "padding": "valid", "trainable": false, "dilation_rate": [1, 1], "kernel_constraint": null, "activation": "linear", "bias_constraint": null, "bias_regularizer": null}, "class_name": "Conv2D", "name": "fire9/squeeze1x1"}, {"inbound_nodes": [[["fire9/squeeze1x1", 0, 0, {}]]], "config": {"trainable": false, "activation": "relu", "name": "fire9/relu_squeeze1x1"}, "class_name": "Activation", "name": "fire9/relu_squeeze1x1"}, {"inbound_nodes": [[["fire9/relu_squeeze1x1", 0, 0, {}]]], "config": {"strides": [1, 1], "bias_initializer": {"config": {}, "class_name": "Zeros"}, "kernel_initializer": {"config": {"distribution": "uniform", "scale": 1.0, "mode": "fan_avg", "seed": null}, "class_name": "VarianceScaling"}, "filters": 256, "use_bias": true, "kernel_size": [1, 1], "kernel_regularizer": null, "data_format": "channels_last", "name": "fire9/expand1x1", "activity_regularizer": null, "padding": "valid", "trainable": false, "dilation_rate": [1, 1], "kernel_constraint": null, "activation": "linear", "bias_constraint": null, "bias_regularizer": null}, "class_name": "Conv2D", "name": "fire9/expand1x1"}, {"inbound_nodes": [[["fire9/relu_squeeze1x1", 0, 0, {}]]], "config": {"strides": [1, 1], "bias_initializer": {"config": {}, "class_name": "Zeros"}, "kernel_initializer": {"config": {"distribution": "uniform", "scale": 1.0, "mode": "fan_avg", "seed": null}, "class_name": "VarianceScaling"}, "filters": 256, "use_bias": true, "kernel_size": [3, 3], "kernel_regularizer": null, "data_format": "channels_last", "name": "fire9/expand3x3", "activity_regularizer": null, "padding": "same", "trainable": false, "dilation_rate": [1, 1], "kernel_constraint": null, "activation": "linear", "bias_constraint": null, "bias_regularizer": null}, "class_name": "Conv2D", "name": "fire9/expand3x3"}, {"inbound_nodes": [[["fire9/expand1x1", 0, 0, {}]]], "config": {"trainable": false, "activation": "relu", "name": "fire9/relu_expand1x1"}, "class_name": "Activation", "name": "fire9/relu_expand1x1"}, {"inbound_nodes": [[["fire9/expand3x3", 0, 0, {}]]], "config": {"trainable": false, "activation": "relu", "name": "fire9/relu_expand3x3"}, "class_name": "Activation", "name": "fire9/relu_expand3x3"}, {"inbound_nodes": [[["fire9/relu_expand1x1", 0, 0, {}], ["fire9/relu_expand3x3", 0, 0, {}]]], "config": {"trainable": false, "axis": 3, "name": "fire9/concat"}, "class_name": "Concatenate", "name": "fire9/concat"}]}, "class_name": "Model", "backend": "tensorflow"}